nnet/TestNetwork2.onnx (onnx, 53878 bytes, 14 tensors)

W0 f4 [50, 5]
0	0x357092ba	8.962048e-07
1	0xbed4c1c4	-0.4155408
2	0xbceab7fe	-0.028652187
3	0x3966df24	0.00022017636
4	0x38f7206c	0.00011783917
5	0xb79c6e05	-1.8647881e-05
6	0x3b897b78	0.004195627
7	0xbabf7ca8	-0.0014609294
8	0x38541738	5.0566363e-05
9	0xb98f255b	-0.00027302917
10	0x365a4b41	3.2528335e-06
11	0x3d1ddcf6	0.038540803
12	0x3dd01a5e	0.10161279
13	0xb9e3f40a	-0.00043478637
14	0x38f92bdf	0.00011881417
15	0xb7e2eca3	-2.7051492e-05
16	0xbbb3a2b8	-0.005482044
17	0xba7c9ed4	-0.00096367043
18	0x372af040	1.0188727e-05
19	0xb712cbe4	-8.74975e-06
20	0xb6c5be9d	-5.893248e-06
21	0x3db87a2b	0.09007677
22	0x3d14ce94	0.03632982
23	0x39290d2a	0.00016122
24	0xb935d243	-0.00017339834
25	0xb5184f19	-5.6739515e-07
26	0x3e73c2de	0.23804805
27	0xbe79f4b4	-0.24409753
28	0x381a7265	3.6823e-05
29	0x390f9c79	0.00013695833
30	0x36dfd794	6.6710145e-06
31	0x3d120a26	0.03565421
32	0xbbf3a1fe	-0.0074350825
33	0x391c3a71	0.0001489909
34	0xb90c882b	-0.00013402167
35	0xb7c51433	-2.3493636e-05
36	0xbc42e631	-0.011895702
37	0x3c1d9970	0.009619102
38	0x38380973	4.387782e-05
39	0xb843c48b	-4.6674668e-05
40	0xb7c925da	-2.3978693e-05
41	0x3be9d9c4	0.0071365554
42	0x3ab96f42	0.0014147537
43	0xb96e8830	-0.00022748183
44	0x3864595e	5.4442666e-05
45	0xb79cf073	-1.8708617e-05
46	0x3b7a3724	0.003817984
47	0xbac793c0	-0.0015226528
48	0x37082b5c	8.116327e-06
49	0xb680116b	-3.816725e-06
50	0x372add4d	1.0184315e-05
51	0xbdb5d230	-0.08877981
52	0xbc077764	-0.008268211
53	0x39195513	0.0001462291
54	0xb8a9d47a	-8.098125e-05
55	0x3781f9a6	1.549425e-05
56	0x3d04c1d8	0.032411426
57	0x3cd8a995	0.02644805
58	0xb5b9a9d3	-1.3833e-06
59	0xb93704b9	-0.00017454
60	0xb535c1d1	-6.7709794e-07
61	0x3db2d65a	0.087322906
62	0x3c15e6fb	0.009149308
63	0x39084cf3	0.00012998637
64	0x38a5cb45	7.905675e-05
65	0xb66c62d8	-3.5224275e-06
66	0xbd55d320	-0.052203298
67	0x3d6913c6	0.056903623
68	0xb9b9bf83	-0.00035428637
69	0xb9c8aff9	-0.00038278083
70	0x350ea02d	5.313221e-07
71	0x3d89b2ed	0.067235805
72	0xbdb96926	-0.090532586
73	0xb948ed9a	-0.00019162
74	0x3884623f	6.31255e-05
75	0xb45d0b25	-2.0586283e-07
76	0x3eba2906	0.36359423
77	0x3c0b680c	0.008508693
78	0x385d5e3d	5.2778272e-05
79	0x38cf5c02	9.887667e-05
80	0xb60857b1	-2.0316622e-06
81	0xbde816f1	-0.11332501
82	0x3abf1083	0.0014577064
83	0xb9ba6b4f	-0.00035556636
84	0x37ed9259	2.832075e-05
85	0x3586063f	9.985596e-07
86	0xbc26a4e2	-0.010171147
87	0xbecbf283	-0.3983346
88	0x383e895c	4.5427456e-05
89	0xb80415be	-3.14915e-05
90	0x35b98a1a	1.3823767e-06
91	0xbbd482fc	-0.006485341
92	0xbdf52595	-0.11970059
93	0xb8e27d15	-0.00010799818
94	0xb93e879e	-0.00018170333
95	0xb7a56171	-1.9714907e-05
96	0x3cbc9176	0.02301858
97	0xbcc2a180	-0.02375865
98	0xb8098f6a	-3.279691e-05
99	0xb8cfd9b9	-9.911083e-05
100	0xb5e69aef	-1.7181427e-06
101	0x3c36826c	0.011139493
102	0x3ec580d8	0.38574862
103	0x37acba72	2.0590818e-05
104	0x37df6b8b	2.663375e-05
105	0xb5be3003	-1.4170076e-06
106	0x3ce471e1	0.027886333
107	0xbc63e7f7	-0.013910285
108	0xba2e67e5	-0.0006653055
109	0xb940fb4f	-0.00018404167
110	0xb4acb12d	-3.216641e-07
111	0x3f22b9e3	0.6356489
112	0x3c9998b1	0.018749567
113	0x38957f61	7.1286e-05
114	0xb74afb05	-1.2098583e-05
115	0x3494a999	2.7690547e-07
116	0xbdd54d89	-0.10415179
117	0x3db6901b	0.08914205
118	0x393b639d	0.00017870819
119	0xb9c485d6	-0.0003748375
120	0x32eef63c	2.7818821e-08
121	0x3a60a48f	0.0008569443
122	0xba979518	-0.0011564819
123	0x367f109f	3.8007636e-06
124	0x35c73503	1.4842084e-06
125	0xb779e114	-1.4893962e-05
126	0xbca65f53	-0.020309126
127	0x3cd4431a	0.025910903
128	0xb83779c3	-4.3744e-05
129	0x388944ee	6.545508e-05
130	0xb781e894	-1.5486301e-05
131	0xbb7dbf43	-0.0038718737
132	0x3d161d5a	0.036649086
133	0xb94742ca	-0.00019003
134	0xb8a4eab9	-7.86385e-05
135	0x36328d7f	2.6606428e-06
136	0x3a1a12e4	0.0005877449
137	0x3d2ae503	0.04172231
138	0x39866197	0.00025631182
139	0xb9f0f18c	-0.00045956334
140	0x35b9c261	1.3840146e-06
141	0x3ea404bd	0.32034865
142	0x3d67a049	0.056549344
143	0x38094afd	3.2733184e-05
144	0xb8ae25da	-8.304017e-05
145	0x369e25a2	4.713148e-06
146	0xbbf2e48b	-0.0074124984
147	0x3a9c061c	0.0011903676
148	0xba484e11	-0.00076410273
149	0xb9d27f30	-0.00040149083
150	0x37bf1ef6	2.2783392e-05
151	0x3a756295	0.0009360698
152	0x3b088ac0	0.0020834655
153	0xb88d45d2	-6.736409e-05
154	0xb9082ed5	-0.00012987417
155	0xb620dbf8	-2.3969897e-06
156	0x38cacc03	9.670111e-05
157	0xbb5cc028	-0.003368387
158	0xba1a5bc6	-0.0005888309
159	0xb77f6ba8	-1.522425e-05
160	0xb7bdb8d1	-2.2616618e-05
161	0xbb581d43	-0.0032976426
162	0x3be86926	0.007092613
163	0x381645ed	3.582791e-05
164	0x38a3861b	7.797425e-05
165	0xb7d803d1	-2.5750984e-05
166	0x3c5a859b	0.013337518
167	0xbbb79e98	-0.0056036226
168	0x36b8d70f	5.5086634e-06
169	0x36e7a378	6.9033667e-06
170	0x37b47dc5	2.1516238e-05
171	0x3c74a9f0	0.014933094
172	0x3ce4c854	0.027927555
173	0x38fe6753	0.000121309095
174	0x398289a4	0.00024898082
175	0x348d5e98	2.6332123e-07
176	0x3d56fa84	0.052485004
177	0xbd2cfbb7	-0.04223224
178	0xb8c566af	-9.412818e-05
179	0x3885db38	6.382767e-05
180	0xb5393ed6	-6.900931e-07
181	0xbe70abd4	-0.23503047
182	0xbc171070	-0.009220228
183	0xb9450169	-0.0001878791
184	0x39301d4d	0.00016795583
185	0xb5b83199	-1.3723503e-06
186	0x39d4e13e	0.0004060361
187	0x3acdf0c6	0.0015712015
188	0x38837e32	6.2700725e-05
189	0xba4001c7	-0.00073244836
190	0xb7dd5ebf	-2.6389373e-05
191	0x3bf8177e	0.00757116
192	0x3a9f2eda	0.00121447
193	0xb7597ec9	-1.2963727e-05
194	0x361f6910	2.3754e-06
195	0x34fc7919	4.7026768e-07
196	0xbb70c217	-0.003673678
197	0xbc470a62	-0.012148472
198	0xba37e26e	-0.00070146366
199	0x39da0802	0.00041586166
200	0x361b0817	2.3101509e-06
201	0xbdba8099	-0.09106559
202	0x3d8b1de7	0.06792813
203	0xb99d4cdb	-0.00030002635
204	0x39756c37	0.00023405334
205	0x368f93a5	4.27892e-06
206	0xbc2371ce	-0.009975864
207	0xbd57dd50	-0.052701294
208	0x399d3dba	0.00029991363
209	0xba3b109b	-0.00071359583
210	0x3598e5db	1.1391779e-06
211	0x39cd27d1	0.00039130313
212	0xbb14bf64	-0.0022697086
213	0x37d5731d	2.5445182e-05
214	0xbaca2e8d	-0.001542525
215	0xb74f4cfa	-1.2356084e-05
216	0x3a021d2d	0.0004963454
217	0xbcf4f4c5	-0.029901871
218	0x374fb286	1.2379727e-05
219	0xb75f112b	-1.3295833e-05
220	0xb6e7f40a	-6.9127464e-06
221	0x3afbb984	0.0019205068
222	0xbbfb2b54	-0.007665077
223	0xb9adc771	-0.00033145727
224	0x397bd3e8	0.00024016167
225	0xb7301acc	-1.0496657e-05
226	0xbbbb08f2	-0.0057078535
227	0x3b93daf5	0.0045121857
228	0x388ca371	6.7061635e-05
229	0x386330bf	5.4166416e-05
230	0x352e9f11	6.5051523e-07
231	0x3db7fd00	0.08983803
232	0x3d2b54a9	0.041828785
233	0xb754ed62	-1.2691455e-05
234	0xb99c5c89	-0.00029823583
235	0xb52be4b6	-6.403528e-07
236	0xbca18305	-0.019715795
237	0xbdf893e8	-0.12137586
238	0x38214dde	3.845791e-05
239	0x382e60e8	4.1575084e-05
240	0xb7db6dfa	-2.6158046e-05
241	0x3892dd75	7.003072e-05
242	0xbaad9924	-0.0013244492
243	0xb8b0a865	-8.4237e-05
244	0xb68a0cc8	-4.1142084e-06
245	0x372cb743	1.0294668e-05
246	0x3c43aac8	0.011942573
247	0xbb186e3b	-0.0023259062
248	0x397a4cc3	0.00023870454
249	0xb96165fe	-0.00021495667

B0 f4 [50]
0	0xbb809d5a	-0.003925008
1	0x3e9f5c11	0.3112493
2	0x3e4d29d7	0.20035492
3	0x3e1fe467	0.15614472
4	0x3d0dd4ba	0.0346267
5	0xbf2efbed	-0.6835316
6	0xbd973f52	-0.07385124
7	0x3d928f0d	0.07156191
8	0x3e6f0fe5	0.23345907
9	0x3e4c5b21	0.19956638
10	0xbe41d9f2	-0.18930796
11	0xbc8c2602	-0.017107967
12	0x3c5c133d	0.013432321
13	0x3e624a3d	0.22098632
14	0x3e8bd29e	0.27309126
15	0x3defd577	0.11710637
16	0xbd6af3e5	-0.057361502
17	0x39896687	0.00026207065
18	0x3c55a60b	0.013040076
19	0x3dfcfd4d	0.12353001
20	0x38fe40f3	0.000121237616
21	0x3e38a100	0.18030167
22	0x3d8396fd	0.06425283
23	0x3de79e22	0.11309458
24	0xbcba8855	-0.022770086
25	0x3d5507b2	0.052009292
26	0x3e74c3dc	0.2390284
27	0x3e028d8d	0.1274931
28	0xbe102281	-0.14075662
29	0x3e4ed2c8	0.20197594
30	0x3e6b677d	0.22988696
31	0x3f1325e0	0.5747967
32	0x3b8d7cbd	0.0043178485
33	0x3db13547	0.0865274
34	0x3dd83471	0.105568774
35	0x3e1a1cc0	0.1505003
36	0x3e8a885c	0.2705716
37	0x3f240700	0.6407318
38	0x3db51d3c	0.08843467
39	0x3df569ab	0.11983045
40	0x3e6c0085	0.23047073
41	0x3e116dcc	0.1420204
42	0x3e80d005	0.25158706
43	0x3db9a073	0.090638064
44	0x3e1a7a9a	0.15085831
45	0x3cb7ad02	0.022421364
46	0x3e586c61	0.21135093
47	0x3c877d67	0.016539289
48	0x3e026cfa	0.12736884
49	0xbd5d393e	-0.05400967

W1 f4 [50, 50]
0	0xbe3c9f73	-0.184202
1	0x3d0cd59c	0.0343834
2	0xbdebcf92	-0.115142
3	0x3e3d2fe4	0.184753
4	0xbe0c7086	-0.137148
5	0xbe41dc51	-0.189317
6	0xbf3faa7a	-0.748695
7	0x3f136ad7	0.575849
8	0xbc5a2a18	-0.0133157
9	0x3e1316a0	0.143641
10	0x3e0842b7	0.133067
11	0xbe65cdd5	-0.224418
12	0x3e9ab325	0.302148
13	0x3d27512d	0.0408489
14	0xbeaddaad	-0.339559
15	0x3d84f334	0.064917
16	0x3d95d9bc	0.0731692
17	0xbeeb2053	-0.459231
18	0x3ef311a5	0.474744
19	0x3ec123c4	0.377226
20	0xbf8e99d9	-1.11407
21	0xbf1264f5	-0.571853
22	0x3d4c73c7	0.0499151
23	0xbe82274a	-0.254206
24	0xbccecc81	-0.025244
25	0x3e672fba	0.225768
26	0x3e198fa3	0.149962
27	0xbe1eed46	-0.155202
28	0xbc8ce9be	-0.0172013
29	0x3f7d9d99	0.990686
30	0x3da087f3	0.0783843
31	0xbe13a8a4	-0.144198
32	0xbe375f70	-0.179075
33	0xbeae1954	-0.340037
34	0x3e596aad	0.212321
35	0x3c074cd0	0.00825806
36	0x3d8c249c	0.0684292
37	0x3f1683a1	0.587946
38	0xbe2ecf20	-0.170712
39	0xbf0b2f45	-0.54369
40	0x3df3929f	0.118932
41	0xbefde072	-0.495853
42	0xbfd55087	-1.66652
43	0xbea5ed07	-0.324074
44	0xbc7cb055	-0.0154229
45	0x3f0295ea	0.5101
46	0x3dc0b227	0.0940898
47	0x3eacbe1f	0.337388
48	0x3eca9564	0.395671
49	0xbe64d61b	-0.223473
50	0x3c8c9b4f	0.0171639
51	0xbd0d3481	-0.0344739
52	0xbc0e6d8c	-0.00869311
53	0x3d1c547a	0.0381665
54	0x3caf5dbc	0.021407
55	0x3d2ccd6e	0.0421881
56	0x3cb08f14	0.0215526
57	0xbd09b1fb	-0.033617
58	0xbd424f30	-0.0474388
59	0x3caee69d	0.0213502
60	0x3c22e858	0.00994309
61	0x3ce37d7e	0.0277698
62	0x3ba17342	0.00492707
63	0xbd2efb46	-0.0427201
64	0xbcc4a25c	-0.0240032
65	0xbd0408f4	-0.0322351
66	0x3c5b73c4	0.0133943
67	0xbd2d8b89	-0.0423694
68	0xbd244f35	-0.0401146
69	0xbc8efbe7	-0.0174541
70	0xbd2d4f23	-0.0423118
71	0x3c702455	0.0146571
72	0xbd007b35	-0.0313675
73	0x3d1d9b51	0.0384782
74	0x3d3e25d5	0.0464228
75	0x3cb2ccdc	0.0218262
76	0x3c82b339	0.0159546
77	0x3b88cb2b	0.00417461
78	0x3c8e8c1f	0.0174008
79	0xbc9236cf	-0.0178484
80	0xbd443fe6	-0.0479125
81	0xbb85da4a	-0.00408486
82	0xbd2b6284	-0.041842
83	0x3abea847	0.0014546
84	0xbd506482	-0.0508771
85	0xbd3dc9c5	-0.046335
86	0x3caf85ca	0.0214261
87	0xbd5a3733	-0.0532753
88	0xbd6ac1c5	-0.0573137
89	0x3ced608b	0.0289767
90	0xbd06eb0b	-0.032939
91	0xbd02f61f	-0.031973
92	0xbd08cd2e	-0.0333988
93	0xbcba0763	-0.0227086
94	0xbc7d7f1c	-0.0154722
95	0xbd46457a	-0.0484061
96	0xbbe92924	-0.0071155
97	0xbd1806a2	-0.0371157
98	0x3ca0ece0	0.0196442
99	0xbd101308	-0.0351744
100	0x3d8f0216	0.0698282
101	0xbb85fdf1	-0.00408911
102	0xbe8e559f	-0.277997
103	0x3e84801f	0.25879
104	0x3e1f8f47	0.15582
105	0xbfaa6eeb	-1.33151
106	0xbfa7ebaf	-1.31188
107	0xbf64a809	-0.893189
108	0x3e4822bc	0.195445
109	0x3ec49f30	0.384027
110	0x3d2ef241	0.0427115
111	0xbf0a15fd	-0.539398
112	0x3da67da0	0.0812943
113	0x3ecd759f	0.401288
114	0xbe8c8d19	-0.274514
115	0x3ebc6195	0.367932
116	0xbf42b702	-0.760605
117	0xbfa59115	-1.29349
118	0x3fbc4d01	1.4711
119	0x3dc84132	0.0977806
120	0xbf4a43ee	-0.790099
121	0xbf08dfbd	-0.534664
122	0x3bec2e67	0.00720768
123	0xbf0dbd30	-0.553668
124	0xbcb4260d	-0.0219908
125	0x3e87d8cf	0.265326
126	0x3e50d90e	0.203953
127	0x3ed17cc4	0.409155
128	0xbf5c08b7	-0.859508
129	0x3e400ffe	0.187561
130	0x3e784168	0.242437
131	0xbde71045	-0.112824
132	0x3f06ca36	0.526523
133	0xbeed84d3	-0.463904
134	0xbeba8a83	-0.364338
135	0x3d5bedb7	0.0536935
136	0x3ee322d1	0.443625
137	0x3f6b6f1a	0.919664
138	0x3f23d3d4	0.639951
139	0xbf60f6f1	-0.878768
140	0xbf7a7f80	-0.978508
141	0xbd208fdd	-0.0391997
142	0x3e118f82	0.142149
143	0xbf4c6af4	-0.798507
144	0xbfe22d62	-1.76701
145	0x3e1c9f73	0.152952
146	0x3e85a5b9	0.26103
147	0xbff031cf	-1.87652
148	0xbf179af2	-0.592208
149	0x3ee19935	0.440622
150	0x3f4b7a70	0.794837
151	0xbeb9d884	-0.36298
152	0xbe300970	-0.171911
153	0x3dc7dfad	0.0975946
154	0x3cde5520	0.0271402
155	0xbed4a5be	-0.415327
156	0xbdbd56cb	-0.0924507
157	0xbf1a4431	-0.602603
158	0xbea45048	-0.320925
159	0x3edee393	0.43533
160	0x3f0712c2	0.52763
161	0xbed4b0e2	-0.415412
162	0xbe4878b8	-0.195773
163	0xbd18af3e	-0.0372765
164	0xbf810093	-1.00783
165	0x3e08a0d3	0.133426
166	0x3e7e5109	0.248356
167	0xbfd96d5d	-1.69865
168	0x4000b40f	2.01099
169	0xbf350636	-0.707126
170	0x3f93d60f	1.15497
171	0x3f06ece1	0.527052
172	0xbe2d7cf6	-0.169422
173	0x3eba2446	0.363558
174	0xbcf73ce3	-0.0301804
175	0x3f4541fa	0.770538
176	0xbec14df9	-0.377548
177	0xbc60dc4e	-0.0137244
178	0xbef9b8ed	-0.487739
179	0x3e67c30d	0.22633
180	0x3ec45fc0	0.383543
181	0x3e905532	0.2819
182	0xbef41a69	-0.476764
183	0x3c13f2e7	0.00903008
184	0xbdcfb86f	-0.101426
185	0xbf1ef8ad	-0.620982
186	0x3b920693	0.00445635
187	0xbe13a29c	-0.144175
188	0xbe07a56e	-0.132467
189	0x3eb69553	0.356608
190	0x3d6dc02d	0.0580446
191	0xbee91e86	-0.455311
192	0xbf3504c5	-0.707104
193	0xbecf8e19	-0.405381
194	0xbd2d48f4	-0.0423059
195	0x3f18ccee	0.596877
196	0xbe5edbb6	-0.217635
197	0xbe03fe19	-0.128899
198	0xbe01a650	-0.126611
199	0xbe30fe8b	-0.172846
200	0xbd6fab1e	-0.0585128
201	0x3be82065	0.00708394
202	0x3e894680	0.268116
203	0xbbd81ca2	-0.00659521
204	0x3ea1b153	0.315806
205	0xbd5c3159	-0.053758
206	0x3ebb3b32	0.365686
207	0x3d13afaa	0.0360562
208	0xbd425397	-0.047443
209	0xbebe1a82	-0.371296
210	0x3e1dab5c	0.153974
211	0xbe5ce0b9	-0.215701
212	0x3e15bff0	0.14624
213	0x3ed444e1	0.414588
214	0xbd55d950	-0.0522092
215	0xbdfa1017	-0.122101
216	0xbe742785	-0.238432
217	0xbf8cbd66	-1.09953
218	0xc04d2032	-3.20509
219	0xbee0bdcb	-0.438948
220	0xbe8567ba	-0.260557
221	0xbe89d94d	-0.269236
222	0xbd279662	-0.0409149
223	0x3ebd015c	0.369151
224	0xbd324e4c	-0.0435317
225	0xbeb05f07	-0.344475
226	0xbebdf30e	-0.370995
227	0xbebcd4cc	-0.368811
228	0xbd0ec6bd	-0.0348575
229	0x3ec480a6	0.383794
230	0xbdd5043e	-0.104012
231	0xbeb123a3	-0.345975
232	0x3f068987	0.525536
233	0x3e0f97ab	0.140227
234	0x3e1fd0d0	0.15607
235	0x3f12b192	0.573022
236	0xbc868fd2	-0.016426
237	0xbe09713b	-0.134221
238	0xbe08bac7	-0.133525
239	0x3c222ad8	0.00989791
240	0xbe5f4342	-0.21803
241	0xbe20489d	-0.156527
242	0xbf23c159	-0.639669
243	0x3f2ae515	0.667558
244	0x3ed47a5b	0.414996
245	0x3ea5e56d	0.324016
246	0xbd871a05	-0.0659676
247	0x3f5becbb	0.859081
248	0xbf1e9ae5	-0.619551
249	0xbc371759	-0.011175
250	0x3d0834d2	0.0332535
251	0xbda5f634	-0.081036
252	0xbf08cf18	-0.53441
253	0x3f2aff2a	0.667956
254	0xbf5001f7	-0.81253
255	0x3fa5fc8f	1.29677

B1 f4 [50]
0	0x3dab1c43	0.08355
1	0xbcaeb413	-0.0213261
2	0x3f419c49	0.756291
3	0xbfa01adf	-1.25082
4	0x3e36c094	0.178469
5	0xbeada61e	-0.339158
6	0x3ddfb1e2	0.109226
7	0xbfa18dce	-1.26214
8	0xbeb68598	-0.356488
9	0xbc07e2ad	-0.00829379
10	0xbca4cf22	-0.0201183
11	0xbe44a5df	-0.192039
12	0xbdb6cccb	-0.0892578
13	0xbe53454a	-0.206319
14	0x3dd72607	0.105053
15	0xbdbeeb7e	-0.0932226
16	0xbe7bd380	-0.245924
17	0x3e233df3	0.159416
18	0x3eee7c8d	0.465794
19	0xbf4291ea	-0.760039
20	0x3e024420	0.127213
21	0x3ec95012	0.393189
22	0xbd93052b	-0.0717872
23	0x3ea3c0e4	0.319831
24	0xbc675071	-0.0141183
25	0xbbd86470	-0.00660377
26	0xbf34269a	-0.703714
27	0x3ee1bcdc	0.440894
28	0xbecec893	-0.403874
29	0xbf0cddb5	-0.550258
30	0xbfaab1c4	-1.33355
31	0xbf8f4dbe	-1.11956
32	0xbf3b4eec	-0.731673
33	0x3e731ceb	0.237415
34	0xbf53d641	-0.827488
35	0x3ea29329	0.317529
36	0xbf3de6ac	-0.741801
37	0xbc8ee0d9	-0.0174412
38	0xbe9ababf	-0.302206
39	0xbdcc2f33	-0.0996994
40	0x3f27b342	0.655079
41	0x3fa04ef9	1.25241
42	0x3d2025f5	0.0390987
43	0xbcc68f31	-0.0242382
44	0xbec579f2	-0.385696
45	0xbeb7d827	-0.359071
46	0xbe1f98b7	-0.155856
47	0x3cea4477	0.0285971
48	0xbeda6e54	-0.426623
49	0x3f47eab3	0.780925

W2 f4 [50, 50]
0	0x3e159147	0.146062
1	0xbbb3eb3f	-0.00549069
2	0x3f4b3d7d	0.793907
3	0x3fa78961	1.30888
4	0x3e65757d	0.224081
5	0xbfae9ad4	-1.3641
6	0xbde08851	-0.109635
7	0x3f6606a7	0.898539
8	0x3e9ebb34	0.310022
9	0x3bdfa227	0.00682475
10	0xbb6d47ec	-0.00362062
11	0x3e196e16	0.149834
12	0xbe70b674	-0.235071
13	0x3e21adeb	0.15789
14	0xbae97c30	-0.00178135
15	0x3ef82d38	0.48472
16	0x3ea5ca08	0.323807
17	0xbf191aca	-0.598065
18	0xbefba9f4	-0.491531
19	0x3ea61c58	0.324435
20	0xbf2b1c54	-0.668401
21	0x3e9c1dd2	0.304915
22	0x3ed68790	0.419003
23	0x3e98f53c	0.298746
24	0x3cc0709e	0.0234912
25	0x3bb41c3c	0.00549653
26	0xbe37cb71	-0.179487
27	0xbfc07e7c	-1.50386
28	0x3cfc5e1f	0.0308066
29	0x3eacdea0	0.337636
30	0x3eae7cd0	0.340796
31	0x3fd2ddad	1.64739
32	0x3c768c4e	0.0150481
33	0x3ead97f6	0.33905
34	0x3eca7d24	0.395486
35	0xbf490d4a	-0.785359
36	0xbf222f8c	-0.633538
37	0xbd1d8a55	-0.038462
38	0xc04e6003	-3.22461
39	0x3f1fecab	0.624705
40	0xbf615065	-0.880133
41	0xbf80a4d3	-1.00503
42	0xbf054b06	-0.520676
43	0x3d08963c	0.0333464
44	0x3efe3cfb	0.496559
45	0x3de8f53c	0.113749
46	0xbf8ed5d0	-1.1159
47	0xbf940a7c	-1.15657
48	0x3f03e953	0.515279
49	0xbe07ce10	-0.132622
50	0xbf945a1d	-1.159
51	0xbc079ffd	-0.00827789
52	0xbef5115a	-0.478648
53	0xbef8678c	-0.485165
54	0x3fb7b8e5	1.43533
55	0x3f8b6849	1.08912
56	0x3eb2556d	0.348308
57	0xc09afda0	-4.84346
58	0x3d2f0ee1	0.0427388
59	0x3ebdad97	0.370465
60	0xbc9de0f1	-0.0192723
61	0xbf2c7831	-0.673709
62	0x3e249a56	0.160745
63	0x3f2680f1	0.650405
64	0x3f5b399f	0.856348
65	0x3d183947	0.037164
66	0x3cd1a071	0.0255892
67	0xbe869835	-0.26288
68	0xbf8aefb3	-1.08544
69	0xbeb9e98e	-0.36311
70	0xbfcf7026	-1.62061
71	0xbf4a0d67	-0.789267
72	0x3ebf7a0b	0.373978
73	0xbf7a9d73	-0.978965
74	0x3ce22ce6	0.0276093
75	0x3d00787b	0.0313649
76	0x3f096c51	0.536809
77	0xbf9318fc	-1.1492
78	0xbdc0aba7	-0.0940774
79	0xbd0889dd	-0.0333346
80	0xbe83f7f0	-0.257751
81	0x3ffc1893	1.9695
82	0x3d4d6883	0.0501485
83	0x3d9631a8	0.0733369
84	0xbf5dc960	-0.866354
85	0x3f47a9d2	0.779935
86	0x3f42a66e	0.760352
87	0xbcb2309f	-0.0217517
88	0xc0003d47	-2.00374
89	0xbf4d0f41	-0.801014
90	0x3e5b7b29	0.214337
91	0x3f93d07d	1.1548
92	0xbf77c47e	-0.967842
93	0x3cd04669	0.0254242
94	0x3e21d4b7	0.158038
95	0xbe3ca3a5	-0.184218
96	0xbd72f357	-0.0593141
97	0xc015414a	-2.33211
98	0xbf0494f7	-0.517898
99	0xbea296b3	-0.317556
100	0x3f8206b8	1.01583
101	0x3ce75686	0.0282395
102	0x3de51a00	0.111866
103	0xbf062d62	-0.52413
104	0x3ebf0baf	0.373136
105	0xbc3d65bc	-0.0115599
106	0xbdef7553	-0.116923
107	0xbf497df2	-0.787078
108	0xbe1e2930	-0.154454
109	0x3d8b0849	0.0678869
110	0xbb675d47	-0.00353034
111	0x3e87268d	0.263966
112	0xbdc4efb1	-0.0961603
113	0x3f0b7026	0.54468
114	0x3e1830e4	0.148624
115	0x3ded5065	0.115876
116	0xbd48da7f	-0.0490365
117	0xbf259e1f	-0.646944
118	0x3f4d13d7	0.801084
119	0xbdd2e48f	-0.102975
120	0x3f25d7cb	0.647824
121	0x3e579208	0.210518
122	0x3c5c3951	0.0134414
123	0x3d93265b	0.0718505
124	0x3d2c0201	0.0419941
125	0xbb3baa91	-0.00286356
126	0xbff1a565	-1.88786
127	0xbf025626	-0.509127
128	0x3ecacb21	0.396081
129	0x3e70c847	0.235139
130	0xbe6fe436	-0.234269
131	0xbf1837a4	-0.594599
132	0xbdb5f6ba	-0.0888495
133	0x3f29c12f	0.663104
134	0xbde23c86	-0.110467
135	0xbf22323c	-0.633579
136	0xbf3da544	-0.740803
137	0x3d01ebe3	0.0317191
138	0x3e04a6ec	0.129543
139	0x3eb8ff32	0.361322
140	0xbdce5abc	-0.100759
141	0xbf00c708	-0.503037
142	0xbe4a2f8c	-0.197447
143	0x3a84ee92	0.00101419
144	0x3e71f70e	0.236294
145	0x3ea03516	0.312905
146	0xbeb42225	-0.351823
147	0x3d9d9224	0.0769389
148	0xbefae903	-0.490059
149	0xbe9c3351	-0.305079
150	0x3e2faace	0.17155
151	0x3ce7be55	0.028289
152	0x3b9c5810	0.00477124
153	0x3cce1496	0.0251563
154	0x3f10024b	0.562535
155	0xbda75a09	-0.0817147
156	0x3f89a177	1.07524
157	0xbe18e608	-0.149315
158	0x3eaaa4db	0.333289
159	0xbe890e45	-0.267687
160	0x3ccdaa0d	0.0251055
161	0x3d8ba8d3	0.0681931
162	0xbd8e221d	-0.069401
163	0x3eb56a59	0.354327
164	0xbe07e77d	-0.132719
165	0x3e462d41	0.193532
166	0x3c866143	0.0164038
167	0xbe8675de	-0.262618
168	0x3edaf6e8	0.427665
169	0xbe8c98e5	-0.274604
170	0xbf06ba06	-0.526276
171	0x3ebd12cb	0.369284
172	0x3e9365ed	0.287887
173	0xbe39a5ec	-0.181297
174	0xbce68464	-0.0281393
175	0xbb4b17ec	-0.00309896
176	0x3da640b4	0.0811781
177	0x3f456c94	0.771188
178	0x3e88e369	0.26736
179	0xbe3606fb	-0.177761
180	0x3e1aae29	0.151055
181	0xbf2ef449	-0.683415
182	0x3eb2120e	0.347794
183	0x3f2cb146	0.67458
184	0x3f858202	1.04303
185	0xbd11f6bd	-0.0356357
186	0x3e822292	0.25417
187	0xbd23f0d6	-0.0400246
188	0x3fe281ed	1.76959
189	0x3e6d45e9	0.231712
190	0xbcdfd8e3	-0.0273251
191	0x3deee17a	0.116641
192	0x3ec0a02c	0.376222
193	0x3d220c65	0.0395626
194	0x3eb96484	0.362095
195	0xbe0ad46f	-0.135576
196	0x3e3f598a	0.186865
197	0xbeba3209	-0.363663
198	0xbe457a78	-0.19285
199	0xbe9bbe44	-0.304186
200	0x3f749aaa	0.955485
201	0x3cd05f94	0.0254362
202	0x3f839f56	1.0283
203	0xbebe1976	-0.371288
204	0x3ebf952d	0.374185
205	0xbeef3f10	-0.467278
206	0xbeb6a50d	-0.356728
207	0xbcd8bf14	-0.0264583
208	0xbe25a101	-0.161747
209	0x3f004e0e	0.501191
210	0x3d51b1be	0.0511949
211	0xbe07fed2	-0.132808
212	0xbf39f0c3	-0.72633
213	0xbf31a017	-0.693849
214	0x3f44fde3	0.769499
215	0xbd26cc88	-0.0407224
216	0x3cce622e	0.0251933
217	0x3c2071e5	0.00979278
218	0xbf083dbc	-0.532192
219	0xbe84154d	-0.257975
220	0xbfd4e5b4	-1.66326
221	0xbf93b1af	-1.15386
222	0x3e48750c	0.195759
223	0xbee292e6	-0.442527
224	0x3d29cbab	0.041454
225	0x3d4b887a	0.0496907
226	0x3f77de1e	0.968233
227	0xbf51d0ea	-0.819594
228	0xbf040a8d	-0.515786
229	0x3f00dd61	0.503378
230	0x3f08bc17	0.53412
231	0xbff743e9	-1.93176
232	0x3f0bfe7e	0.546852
233	0x3e5ebf23	0.217526
234	0x3c82ca15	0.0159655
235	0x3f320770	0.695426
236	0xbedbde40	-0.42943
237	0x3d376379	0.0447726
238	0xbdc7e2c5	-0.0976005
239	0x3ec2a0cb	0.380133
240	0x3ce0e18c	0.0274513
241	0xbf4f0111	-0.80861
242	0x3f86262d	1.04804
243	0xbbadf7f5	-0.0053091
244	0x3e8b6178	0.272228
245	0x3f5164f9	0.817947
246	0x3f7a23af	0.977107
247	0x3e0d0529	0.137715
248	0xbf22d906	-0.636124
249	0xbf00763a	-0.501804
250	0xbf9aa8eb	-1.20828
251	0xbcf8e956	-0.0303847
252	0x3edfa333	0.436792
253	0x3eab910c	0.335091
254	0xbe319bd4	-0.173446
255	0x3ed25248	0.410784

B2 f4 [50]
0	0xbed12514	-0.408486
1	0x3f88cccd	1.06875
2	0xbdcf911d	-0.101351
3	0x3e955ed0	0.291739
4	0x3eb94bbe	0.361906
5	0xbf968683	-1.17598
6	0xbf8adf50	-1.08494
7	0xbf06805a	-0.525396
8	0xbef861c8	-0.485121
9	0xbf103e53	-0.563451
10	0xbedca687	-0.430958
11	0xbec00d5f	-0.375102
12	0xbe9946e5	-0.299369
13	0xbe99bc12	-0.300263
14	0xbf072ecf	-0.528058
15	0xbd7df711	-0.0620032
16	0xbf275ec8	-0.65379
17	0x3f3aed24	0.730181
18	0xbf59970b	-0.849961
19	0xbc80dbc8	-0.0157298
20	0xbe9461b7	-0.289808
21	0x3e8ed139	0.27894
22	0x3fbc4285	1.47078
23	0x4006e853	2.10793
24	0xbe9ece9a	-0.31017
25	0xbf09d777	-0.538444
26	0xbe156bca	-0.145919
27	0x3f8157bc	1.01049
28	0xbebf9160	-0.374156
29	0xbd57f33c	-0.0527222
30	0xbe185c68	-0.14879
31	0x3e82cc2d	0.255464
32	0xbf45aec5	-0.772198
33	0xbfe15715	-1.76047
34	0x3d7f2ab8	0.0622966
35	0x3e8245d4	0.254439
36	0xbe1a5ca3	-0.150744
37	0xbf41dc0e	-0.757264
38	0xc01db646	-2.46425
39	0xbf69c715	-0.913194
40	0xbf102492	-0.563058
41	0xbe5e4fb9	-0.217101
42	0x3f120f4d	0.570546
43	0xbf05fe11	-0.523408
44	0xbfbfff04	-1.49997
45	0xbe861a82	-0.261921
46	0xbf06af14	-0.526109
47	0xbbc4466b	-0.00598984
48	0xbeedbd73	-0.464336
49	0x3de9df11	0.114195

W3 f4 [50, 50]
0	0xbf466949	-0.775044
1	0xbed4aea7	-0.415395
2	0xbea65ecc	-0.324942
3	0x3de5796c	0.112048
4	0xbf3e4064	-0.74317
5	0xbf48e38a	-0.784722
6	0xbf473073	-0.778083
7	0xbeb6cfea	-0.357055
8	0xbeb6d4c3	-0.357092
9	0xbe6702a3	-0.225596
10	0x3f6583a5	0.89654
11	0xbf0d8b61	-0.552908
12	0xbe0c3b0c	-0.136944
13	0xbe6dccea	-0.232227
14	0xbeff4adc	-0.498618
15	0x3ede1523	0.433755
16	0x3fb77122	1.43314
17	0xbf3d7a35	-0.740146
18	0xbf8799c4	-1.05938
19	0xbcbbc5a9	-0.0229214
20	0x3eabdab6	0.335653
21	0xbf17e100	-0.593277
22	0xbebf98fa	-0.374214
23	0xc013e6ef	-2.31097
24	0x3e95cd92	0.292584
25	0x3f804381	1.00206
26	0x3e19f517	0.150349
27	0xbff2a897	-1.89577
28	0xbe0da8bd	-0.138339
29	0xbef96e9c	-0.487172
30	0xbf2f93ab	-0.685847
31	0xc0038f1d	-2.05561
32	0x3f04d8ed	0.518935
33	0x3e9c690e	0.305489
34	0x3e2f5126	0.171208
35	0x3dc4e35f	0.0961368
36	0x3f4c254a	0.797444
37	0xbf9f5254	-1.2447
38	0xbf3c6e09	-0.736054
39	0x3f4e1ac5	0.805096
40	0xbe32b6ae	-0.174525
41	0xbde0474e	-0.109511
42	0xbe55069a	-0.208033
43	0xbfd90625	-1.6955
44	0xbf80115e	-1.00053
45	0xbe5a0e41	-0.212945
46	0xbf617edc	-0.880842
47	0x3b3d3f66	0.00288769
48	0xbd70afcb	-0.0587614
49	0x3ec962d0	0.393332
50	0xbe947219	-0.289933
51	0xbd1ffc3a	-0.0390589
52	0xbe710a9a	-0.235392
53	0xbd0be363	-0.0341524
54	0xbdcfc0d3	-0.101442
55	0xbc2b08c2	-0.0104391
56	0xbe1ce78a	-0.153227
57	0x3e15ad97	0.14617
58	0x3ca6a1c0	0.0203408
59	0x3ca7f979	0.0205047
60	0xbe515a08	-0.204445
61	0x3e6b2fa9	0.229674
62	0xbdc586b0	-0.0964483
63	0x3d8cd6a8	0.0687688
64	0x3ba61bc9	0.00506923
65	0xbe4260f6	-0.189823
66	0x3e84b85a	0.259219
67	0xbe8b2ca5	-0.271825
68	0x3c5c5d64	0.01345
69	0xbcc1a338	-0.0236374
70	0xba83a10a	-0.00100425
71	0x3d9118c2	0.070848
72	0xbd9ba9ed	-0.0760077
73	0xbe21f601	-0.158165
74	0x3daade8e	0.0834323
75	0xbbe741ee	-0.00705742
76	0xbcf243ea	-0.0295734
77	0xbdbc1250	-0.0918318
78	0xbc005f00	-0.00783515
79	0x3c80cec7	0.0157236
80	0xbebcb1ee	-0.368545
81	0x3e84bfd3	0.259276
82	0x3f03280f	0.51233
83	0x3d40a50c	0.0470324
84	0x3cc8baba	0.0245031
85	0x3c653f1f	0.0139921
86	0xbe7effe3	-0.249023
87	0xbe10e1b5	-0.141486
88	0x3d81b6ac	0.0633367
89	0x3e28cc57	0.164842
90	0xbe225bb8	-0.158553
91	0x3e1e18f0	0.154392
92	0xbe14fc61	-0.145494
93	0xbe3d9275	-0.185129
94	0xbcc741de	-0.0243234
95	0x3f0bcdff	0.546112
96	0xbd512f83	-0.0510707
97	0x3ced6162	0.0289771
98	0x3dc13bac	0.0943521
99	0x3e7a426c	0.244394
100	0xbdcb15f9	-0.099163
101	0xbd162902	-0.0366602
102	0x3d9aa01c	0.0755007
103	0x3ee45e4e	0.446032
104	0xbe374d59	-0.179006
105	0xbb468dee	-0.0030297
106	0x3e08fc0d	0.133774
107	0xbde4998d	-0.111621
108	0x3ec3cb81	0.382412
109	0x3ed6ca04	0.41951
110	0xbe28cfc0	-0.164855
111	0xbde49fd8	-0.111633
112	0x3c662fe0	0.0140495
113	0xbe27ec78	-0.163988
114	0xbe8bf76a	-0.273372
115	0xbd4e61dd	-0.0503863
116	0xbe23358f	-0.159384
117	0xbe036263	-0.128305
118	0xbe027675	-0.127405
119	0x3ce81d55	0.0283343
120	0xbdae9af6	-0.0852565
121	0xbeadf549	-0.339762
122	0xbc26c6a9	-0.0101792
123	0xbd428b10	-0.0474959
124	0xbe97820a	-0.295914
125	0xbd2d79b6	-0.0423524
126	0x3ce82583	0.0283382
127	0xbe2eaaf3	-0.170574
128	0xbe4c76d1	-0.199672
129	0xbda0fc2f	-0.078606
130	0xbcf9a614	-0.0304747
131	0x3e1105e2	0.141624
132	0x3dec1765	0.115279
133	0x3d2ddee6	0.0424489
134	0xbdb78efd	-0.0896282
135	0x3bfcb761	0.00771229
136	0xbd3fbfd4	-0.0468138
137	0xbe960781	-0.293026
138	0x3d72d377	0.0592837
139	0x3e2dd11c	0.169743
140	0xbcd4504f	-0.0259172
141	0xbe0938de	-0.134006
142	0xbc3d54f5	-0.0115559
143	0x3d28c80b	0.0412064
144	0x3d9b3588	0.0757857
145	0xbe35479d	-0.177031
146	0xbc4d9c00	-0.0125494
147	0xbc8ee002	-0.0174408
148	0x3e0ae211	0.135628
149	0x3d1df183	0.0385604
150	0x3f1b1eb0	0.605937
151	0xbe91f7b6	-0.285093
152	0x3fbb4c6e	1.46327
153	0xbeb5ce7d	-0.355091
154	0x3eb9d12d	0.362924
155	0x3e6883fd	0.227066
156	0xbf4471e7	-0.767363
157	0xc0069e99	-2.10343
158	0xbecaafde	-0.395873
159	0x3fa8307f	1.31398
160	0xbfe0ba73	-1.75569
161	0x3f9b9336	1.21543
162	0x3e9c0097	0.304692
163	0x3d8b2d9e	0.0679581
164	0xbeddeb31	-0.433435
165	0x3fb63832	1.42359
166	0xbefdfdce	-0.496077
167	0x3e3488c6	0.176303
168	0x3e0ccd10	0.137501
169	0x3b46825b	0.00302901
170	0xbf3e687f	-0.743782
171	0xbe8cd467	-0.275058
172	0x3e24d1a6	0.160956
173	0x3ee69d0f	0.450417
174	0x3f717eed	0.943343
175	0x3e55243a	0.208146
176	0xbed3bbc7	-0.413542
177	0x3f94294a	1.15751
178	0xbe0b078e	-0.135771
179	0xbe7e3044	-0.248231
180	0x3e852fe4	0.260131
181	0xbfaea5f8	-1.36444
182	0xbfafc212	-1.37311
183	0x3f0743a6	0.528376
184	0x3e17ca21	0.148232
185	0x3e264628	0.162377
186	0x3e2f05ea	0.170921
187	0xbe41a3f4	-0.189102
188	0xbdbf4ed8	-0.0934121
189	0xbcdfce9d	-0.0273202
190	0x3eb1b8aa	0.347112
191	0x3e980e8d	0.296986
192	0x3ede989a	0.434758
193	0x3fbab5b3	1.45867
194	0x3f1bdc9c	0.608835
195	0xbfc4dc33	-1.53797
196	0x3cbcdf4f	0.0230557
197	0x3d27c287	0.040957
198	0x3d059210	0.03261
199	0x3eb99c9d	0.362523
200	0x3f2ba2f0	0.670455
201	0x3f35fd69	0.710898
202	0x3fa4cad5	1.28744
203	0xbf61cdb3	-0.882045
204	0x3cd3b1f9	0.0258417
205	0x3f672c84	0.903023
206	0xbf09c77a	-0.5382
207	0xbe32e6a7	-0.174708
208	0x3e554717	0.208279
209	0xbe962a1b	-0.29329
210	0x3f04d142	0.518818
211	0xbf1f557a	-0.622398
212	0x3ed1c64c	0.409716
213	0x3fc61038	1.54737
214	0x3fa29100	1.27005
215	0x3e2d9408	0.16951
216	0xbff42603	-1.90741
217	0xbfbc284e	-1.46998
218	0x3ce4c221	0.0279246
219	0x3d386105	0.0450144
220	0x3eb5d484	0.355137
221	0xbd809ff6	-0.0628051
222	0xbf2eea85	-0.683266
223	0x3e9e5ffa	0.309326
224	0xbf19bc88	-0.600533
225	0xbf827e52	-1.01948
226	0x3f2dd895	0.679086
227	0xc00e8d3b	-2.22737
228	0x3f04d328	0.518847
229	0x3db4b902	0.0882435
230	0xbf6b925c	-0.920202
231	0xc0259b3d	-2.5876
232	0x3f975b2d	1.18247
233	0xbe679357	-0.226148
234	0x3eb8dfdf	0.361083
235	0xbfed800a	-1.85547
236	0x3f31103d	0.691654
237	0x3ebae7f7	0.365051
238	0xbf09abb0	-0.537776
239	0x3e241637	0.160241
240	0x3db96e23	0.0905421
241	0xbf32a25e	-0.69779
242	0x3f76747e	0.962715
243	0x3f5decb3	0.866893
244	0x3ff2469d	1.89278
245	0xbfa5a805	-1.29419
246	0x3f706306	0.939011
247	0xbc5a0382	-0.0133065
248	0x3f414c23	0.755068
249	0xbd18c32b	-0.0372955
250	0xbdf7ef5b	-0.121062
251	0xbde68124	-0.112551
252	0xbea9f384	-0.331936
253	0x3d6c47bc	0.0576856
254	0xbdc323e4	-0.0952833
255	0x3d8348a5	0.0641034

B3 f4 [50]
0	0x3fbdf8f4	1.48416
1	0xbd20dc69	-0.0392727
2	0xbdb9ecdb	-0.0907838
3	0xc01e5586	-2.47397
4	0xc0113166	-2.26864
5	0x3e946f37	0.289911
6	0x3dae0928	0.0849784
7	0xbcb1b691	-0.0216935
8	0xbf302c1b	-0.688173
9	0xbe7b3f21	-0.245358
10	0xbed1591d	-0.408883
11	0x3eb0cd42	0.345316
12	0xbf9672da	-1.17538
13	0xbe04ce3e	-0.129693
14	0xbc7c01d9	-0.0153813
15	0x40136406	2.30298
16	0x3ef1c411	0.472199
17	0xbeeee760	-0.466609
18	0xbf8fcf2d	-1.12351
19	0x3efdeb74	0.495937
20	0xbf1215a9	-0.570643
21	0xbf49dc1e	-0.788515
22	0x3f821d54	1.01652
23	0x3eecda2b	0.462602
24	0xbfd08755	-1.62913
25	0xbf158f1d	-0.584215
26	0x3dfe785b	0.124253
27	0xbd9ea3b7	-0.0774607
28	0x3e93ea2d	0.288896
29	0xbff6af25	-1.92722
30	0xbfee3e6c	-1.86128
31	0x3f01eb74	0.507499
32	0x40058812	2.08643
33	0xbdcecbfb	-0.100975
34	0x3e9b2160	0.302989
35	0xbf4d06cd	-0.800885
36	0xbe2a7f3d	-0.166501
37	0x3e66501e	0.224915
38	0xbea0a676	-0.31377
39	0xbdb546c7	-0.0885139
40	0xbd294219	-0.0413228
41	0xbf304018	-0.688478
42	0x3dccbe97	0.0999729
43	0x3e715981	0.235693
44	0x3e4d0353	0.200208
45	0x3e3dc50d	0.185322
46	0x3e5a5c1c	0.213242
47	0xbd14d57a	-0.0363364
48	0x3d9c3aa1	0.0762837
49	0xbe5d9620	-0.216393

W4 f4 [50, 50]
0	0xbe2d8a55	-0.169473
1	0xbf83d955	-1.03007
2	0x3f1804da	0.593824
3	0xbead3501	-0.338295
4	0x3e564a17	0.209267
5	0x3e5eb67c	0.217493
6	0x3e90b6fa	0.282646
7	0x3e280496	0.16408
8	0x3f58dee3	0.847151
9	0xbf359a20	-0.709383
10	0x3eb62260	0.355731
11	0x3c0b7cf6	0.00851368
12	0x3e6bbf51	0.230222
13	0x3f1cf616	0.61313
14	0xbb09eb26	-0.00210447
15	0xbd948f6f	-0.0725392
16	0x3e049d39	0.129506
17	0xbe276ff4	-0.163513
18	0xbdc9e35e	-0.0985782
19	0xbf1ae675	-0.605079
20	0xbe0a8694	-0.135279
21	0xbee7b917	-0.452584
22	0x3ee4c6c5	0.446829
23	0xbee1dae0	-0.441123
24	0xbcf3a762	-0.0297429
25	0x3e50df16	0.203976
26	0x3dabe462	0.0839317
27	0xbf0904e6	-0.535231
28	0x3f3b6b2b	0.732104
29	0xbf90be0e	-1.1308
30	0xbdd9b3d0	-0.1063
31	0x3e290321	0.165051
32	0xbba2824b	-0.00495938
33	0xbe52146a	-0.205156
34	0x3ccf1115	0.0252767
35	0xbf0279dd	-0.509672
36	0xbdf0e66d	-0.117627
37	0xbc478a02	-0.0121789
38	0x3daea331	0.0852722
39	0xbf5708bc	-0.839977
40	0x3e3543f2	0.177017
41	0x3f178940	0.591938
42	0xbee3d72c	-0.445001
43	0x3f3a1901	0.726944
44	0x3ef23034	0.473024
45	0xbf13ffde	-0.578123
46	0x3dbfac45	0.0935903
47	0xbc8215ef	-0.0158796
48	0x3e8ae1ce	0.271254
49	0x3f291c7e	0.660591
50	0x3e1305d9	0.143577
51	0x3e2107b8	0.157256
52	0x400669d7	2.10021
53	0x3e95692b	0.291818
54	0xbf257332	-0.646289
55	0xbe5151a4	-0.204413
56	0x3fda1b09	1.70395
57	0xbdba366a	-0.0909241
58	0x402da92a	2.71345
59	0xbebf64f1	-0.373817
60	0x3f4710aa	0.777598
61	0xbd970875	-0.0737466
62	0x3eb20f4d	0.347773
63	0xbe8ecc60	-0.278903
64	0x3d14a9f6	0.0362949
65	0xbe52324d	-0.20527
66	0xc00c7ff6	-2.19531
67	0xbedf95b3	-0.436689
68	0x3faa94ee	1.33267
69	0x3ef56d3b	0.479349
70	0xc001e8bc	-2.02983
71	0xbf192b80	-0.59832
72	0xbe96464a	-0.293505
73	0xbeb828a2	-0.359685
74	0xc0328199	-2.78916
75	0xc00438da	-2.06597
76	0xbf161a1e	-0.586336
77	0xbec6c5f4	-0.388229
78	0xbe245e4e	-0.160516
79	0xc0a71cac	-5.22225
80	0xbd5f3387	-0.0544925
81	0x3cf1a310	0.0294967
82	0xbcc8c74f	-0.0245091
83	0xbf6ac17f	-0.917015
84	0x3f080432	0.531314
85	0x3f21aea3	0.631571
86	0x4007f045	2.12404
87	0x3f46bf34	0.776355
88	0x3eac547a	0.336582
89	0x3f664c51	0.899602
90	0x3f87db4d	1.06138
91	0x3f8cfd4c	1.10148
92	0x3fc54c98	1.5414
93	0x4003ca6d	2.05923
94	0x3fc46057	1.53419
95	0xbe338d1e	-0.175343
96	0x3dc5c15b	0.0965602
97	0xbc0537ee	-0.00813101
98	0xbe461390	-0.193434
99	0xbf7f038e	-0.996148
100	0x3a9d4850	0.00119997
101	0xbe826d8b	-0.254742
102	0x3e4fa483	0.202776
103	0xbd00b8f8	-0.0314264
104	0xbe0ff152	-0.140569
105	0x3efae361	0.490016
106	0xbde4bdba	-0.11169
107	0x3f041f00	0.516098
108	0x3e26f47b	0.163042
109	0x3ea24591	0.316937
110	0xbe57d34e	-0.210767
111	0xbe2168f9	-0.157627
112	0xbdc17226	-0.094456
113	0xbeae25c8	-0.340132
114	0x3d00767d	0.031363
115	0x3d34538f	0.044025
116	0x3d5e33fd	0.0542488
117	0x3d86531b	0.0655882
118	0x3ed3fc87	0.414036
119	0xbe301eef	-0.171993
120	0xbdff3a58	-0.124623
121	0x3da0fab7	0.0786032
122	0xbdc75694	-0.0973331
123	0x3d7b9171	0.061418
124	0xbe3b395c	-0.182836
125	0xbe84197e	-0.258007
126	0xbdc3471f	-0.0953505
127	0xbd91eb35	-0.0712494
128	0x3e8d4845	0.275942
129	0xc0b52310	-5.66053
130	0xc026fdca	-2.60924
131	0x3d94c1ec	0.0726355
132	0xbd8dc75b	-0.0692279
133	0xbdd20fb2	-0.102569
134	0x3decbd98	0.115596
135	0xbe597892	-0.212374
136	0xbebb7f39	-0.366205
137	0xbc14fde9	-0.00909374
138	0xbe08cf3a	-0.133603
139	0xbde52370	-0.111884
140	0x3d40a9a9	0.0470368
141	0x3e655a7d	0.223978
142	0xbe08aefb	-0.13348
143	0x3e206d0d	0.156666
144	0x3eccd424	0.400056
145	0x3d46426f	0.0484032
146	0xbe9c3bf7	-0.305145
147	0x3b06e5b8	0.00205837
148	0xbe477e1c	-0.194817
149	0xbf3839ce	-0.719632
150	0xbf03481b	-0.512819
151	0xbfc70f28	-1.55515
152	0x4073c4db	3.80889
153	0xbf2b6d44	-0.669636
154	0xbf185cee	-0.595168
155	0xc05697e1	-3.35302
156	0xbf739f77	-0.951652
157	0xc0155960	-2.33358
158	0x40c50069	6.1563
159	0x3c4da53a	0.0125516
160	0x3f1f82f5	0.623092
161	0xbff3443d	-1.90052
162	0x3f2374ef	0.638503
163	0xc05531ba	-3.33116
164	0xbcffa490	-0.0312064
165	0xbea5f97b	-0.324169
166	0xc01f65aa	-2.49058
167	0x3f5c9dbf	0.861782
168	0xbfab49cf	-1.33819
169	0xc0874d40	-4.22818
170	0xbf58fdf4	-0.847625
171	0xbdd8d930	-0.105883
172	0xbea8f5c3	-0.33
173	0x3fe29c24	1.77039
174	0x402d1ceb	2.70489
175	0x3fb71466	1.43031
176	0xbf9aaa3b	-1.20832
177	0xbe6ca687	-0.231104
178	0xbf91a21f	-1.13776
179	0x41178adb	9.4714
180	0xbf2c0475	-0.671943
181	0x3b926ed8	0.00446878
182	0xbe0d25ab	-0.137839
183	0xbf17fe4c	-0.593724
184	0xbed865d8	-0.422652
185	0xbfe228cc	-1.76687
186	0x3fd47896	1.65993
187	0x3f41594f	0.755269
188	0x40067f78	2.10153
189	0xbfa356eb	-1.27609
190	0x3fcb3a69	1.58772
191	0xc0320c9e	-2.78202
192	0x3eb939c9	0.361769
193	0xc00014a5	-2.00126
194	0xbf476599	-0.778894
195	0x3f9e3c21	1.23621
196	0x3f49e96c	0.788718
197	0x3d1e3bf5	0.0386314
198	0xbe508cc5	-0.203662
199	0xc02dd788	-2.71628
200	0x3e2007dd	0.15628
201	0x3de75f70	0.112975
202	0xc02c8b44	-2.696
203	0xbdbe4ab1	-0.0929159
204	0xbdea0ec7	-0.114286
205	0xc01935fc	-2.39392
206	0xbd03dd3a	-0.0321934
207	0x3eb4a07f	0.352787
208	0xbe632ebe	-0.221858
209	0xbcaae65e	-0.0208618
210	0xbec9b9fa	-0.393997
211	0xbdcb451b	-0.0992529
212	0x3dbae27c	0.0912523
213	0xbe5e5754	-0.21713
214	0xbc891ac6	-0.0167364
215	0xbe4c0b13	-0.199261
216	0xbcfe00ed	-0.0310063
217	0x3e2bd124	0.16779
218	0x3cf56bf3	0.0299587
219	0x3e9071a4	0.282117
220	0xbf6301da	-0.886747
221	0xbd416774	-0.0472178
222	0x3c378d35	0.0112031
223	0x3f39e8a3	0.726206
224	0x3e3dc26e	0.185312
225	0x3df4aa11	0.119465
226	0x3c37edad	0.0112261
227	0xbdc4a3d4	-0.0960156
228	0x3e606530	0.219136
229	0x3ea46aa1	0.321126
230	0xbd79544a	-0.0608714
231	0xbeb7e692	-0.359181
232	0x3dce1933	0.100634
233	0xbe2f1f9b	-0.171019
234	0x3c473e18	0.0121608
235	0x3ea8795f	0.329051
236	0xbfaf74bc	-1.37075
237	0x3f01b37d	0.506645
238	0x3cb2da7e	0.0218327
239	0x3eb1eeaa	0.347524
240	0xbebbb928	-0.366647
241	0x3e3cad15	0.184254
242	0xbdc9fb11	-0.0986234
243	0xbdeb2075	-0.114808
244	0xbeae9af6	-0.341026
245	0xbed3671b	-0.412896
246	0xc086d71f	-4.21376
247	0x3ce77814	0.0282555
248	0x3eb96378	0.362087
249	0xc0119a17	-2.27503
250	0xbc946801	-0.018116
251	0xbf30283d	-0.688114
252	0x3eb6290f	0.355782
253	0xbe225700	-0.158535
254	0x3d05deb7	0.0326831
255	0xbf345fd0	-0.704587

B4 f4 [50]
0	0x3eb01190	0.343884
1	0xbe1845dd	-0.148704
2	0xbe3ab863	-0.182344
3	0x4005f0c3	2.09282
4	0x3d6b13fb	0.0573921
5	0x3f8950db	1.07278
6	0xc0626666	-3.5375
7	0x3e949b20	0.290246
8	0x3fe4840e	1.78528
9	0x3f120536	0.570392
10	0x3dd2146a	0.102578
11	0xbf5e2132	-0.867694
12	0xbff1b867	-1.88844
13	0xbf8eb4b7	-1.11489
14	0xbee42f83	-0.445675
15	0x3f31ab08	0.694016
16	0x3fa3890d	1.27762
17	0xbfa5436c	-1.29112
18	0xbfabced9	-1.34225
19	0xbe2380cb	-0.159671
20	0x3f252d56	0.645223
21	0x3f7d16ca	0.988629
22	0x3f042279	0.516151
23	0xc0187ed0	-2.38274
24	0x3f2d3fe2	0.676756
25	0x3f4309b7	0.761867
26	0x3d687dce	0.0567606
27	0xbe63ccd1	-0.222461
28	0x3fef4e12	1.86957
29	0x3f86a993	1.05205
30	0xbddc6c98	-0.107629
31	0x3db9ad28	0.0906623
32	0x40239abf	2.55632
33	0x3f600b67	0.875174
34	0x3da98ea4	0.0827916
35	0xbf94cb29	-1.16245
36	0x3f9931ba	1.19683
37	0x3df4a6ec	0.119459
38	0x3d568f23	0.0523826
39	0xbe80bcbe	-0.25144
40	0x3f78a0a1	0.971201
41	0x3ed43c5c	0.414523
42	0x3f0f2f55	0.559316
43	0x3f361577	0.711265
44	0xc04faa7a	-3.24478
45	0x3f147ae1	0.58
46	0x3e29da9d	0.165873
47	0xbfa589df	-1.29327
48	0xbea97e35	-0.331041
49	0xbf27775c	-0.654165

W5 f4 [50, 50]
0	0x3ca2efb9	0.0198897
1	0xbd25b1bb	-0.0404527
2	0xbe8e2068	-0.277591
3	0x3d20c862	0.0392536
4	0x3f1a861f	0.603609
5	0x3eb84d77	0.359966
6	0xbf944c59	-1.15858
7	0x3db74e8e	0.0895053
8	0xbc85370c	-0.0162616
9	0x3f1ed4e5	0.620436
10	0xbfa11c6d	-1.25868
11	0x3edec615	0.435105
12	0x3eead0e5	0.458625
13	0x3e18ab50	0.149091
14	0x3ed23572	0.410564
15	0x3e372368	0.178846
16	0xbdf03fb3	-0.117309
17	0x3e1ef178	0.155218
18	0xbb6ce46f	-0.00361469
19	0x3dc100a4	0.0942395
20	0xbe879a07	-0.264847
21	0xbeeff2e5	-0.46865
22	0xbe72b5a2	-0.237021
23	0xbf09714c	-0.536885
24	0xbd669ed0	-0.0563038
25	0x3e6e8102	0.232914
26	0xbd7ae95b	-0.0612577
27	0x3e93df09	0.288811
28	0xbeee4f55	-0.465449
29	0x3e074de0	0.132133
30	0xbd95261d	-0.0728266
31	0xbf8317ad	-1.02416
32	0xbd013504	-0.0315447
33	0xbddd7236	-0.108128
34	0xbe162d41	-0.146657
35	0x3fc57397	1.54259
36	0xbdd13f8e	-0.102172
37	0xbeb250b5	-0.348272
38	0xbdde7b81	-0.108634
39	0x3dbbe886	0.0917521
40	0x3df340d5	0.118776
41	0xbefb4a02	-0.490799
42	0x3d47942e	0.0487253
43	0x3f8101e2	1.00787
44	0x3ea87a07	0.329056
45	0xbdc4b6dc	-0.0960519
46	0x3e416fca	0.188903
47	0xbf0e5daf	-0.556117
48	0xbea46ae4	-0.321128
49	0xc08fa3d7	-4.48875
50	0xbdff8ca8	-0.12478
51	0x3d2a6c85	0.0416074
52	0x3d8cd97d	0.0687742
53	0xbd4d274b	-0.0500863
54	0x3ec11ec9	0.377188
55	0xbc744765	-0.0149096
56	0x3f313ec4	0.692364
57	0x3d9972e8	0.0749262
58	0x3e0c7a7d	0.137186
59	0x3dc5ef3b	0.0966477
60	0xbbfc5e75	-0.00770169
61	0x3f30ee07	0.691132
62	0x3d5457c1	0.0518415
63	0x3bf27ac7	0.00739989
64	0xbddaa476	-0.106759
65	0x3e5cbee8	0.215572
66	0xbdcd5ae2	-0.100271
67	0x3c0d4934	0.00862341
68	0x3ee276d9	0.442313
69	0x3ea7ae36	0.327501
70	0x3d0da1c4	0.0345781
71	0x3dab440e	0.0836259
72	0xbdd8726d	-0.105687
73	0x3d8c5396	0.0685188
74	0xbe1d6452	-0.153703
75	0x3f0be5da	0.546476
76	0x3c87b9d3	0.0165681
77	0xbe308701	-0.17239
78	0x3d54d7fe	0.0519638
79	0xbc27b4e5	-0.010236
80	0xbe5b40b3	-0.214114
81	0xbeba57c9	-0.363951
82	0xbcfa4ab4	-0.0305532
83	0xbecf9a28	-0.405473
84	0x3d24327a	0.0400872
85	0x3f375947	0.716206
86	0xbc6890e3	-0.0141947
87	0xbe02e0a0	-0.12781
88	0xbe2de00d	-0.1698
89	0x3c007eb6	0.00784271
90	0x3daa42f2	0.0831355
91	0xbeaceb79	-0.337734
92	0xbe75ebb7	-0.240157
93	0x3e20e0a8	0.157107
94	0x3cb24420	0.021761
95	0x3d9635da	0.0733449
96	0x3c183393	0.00928964
97	0x3da8ce05	0.0824242
98	0x3cf009b3	0.0293015
99	0x3d1e79d3	0.0386904
100	0xbfbcbac7	-1.47445
101	0xbf9a9692	-1.20772
102	0xbf0887fd	-0.533325
103	0xbdbd47bf	-0.092422
104	0x40218e4c	2.52431
105	0xbf71f44d	-0.945134
106	0x3f960d45	1.17228
107	0x3e4b1dd6	0.198356
108	0xbe85f549	-0.261637
109	0x3ef7837b	0.483425
110	0xbf19dead	-0.601054
111	0xbdcadbe1	-0.0990522
112	0x3f134795	0.575311
113	0xbf541cf8	-0.828567
114	0xbf03ff7a	-0.515617
115	0x3f9eaed1	1.23971
116	0xbf256606	-0.646088
117	0x3fa231f9	1.26715
118	0x401292cd	2.29021
119	0x3e814057	0.252444
120	0x3e89975f	0.268733
121	0x3f57a5b1	0.842372
122	0xbe3b923a	-0.183175
123	0x3e19e94b	0.150304
124	0x3e826117	0.254647
125	0xbd972b88	-0.0738135
126	0xbe4b2f66	-0.198423
127	0x3e94c166	0.290538
128	0xbe18f8e8	-0.149387
129	0xbe602108	-0.218876
130	0xbebfcb71	-0.374599
131	0xc09ceac8	-4.90366
132	0xbda01d5c	-0.078181
133	0xbf21e226	-0.632357
134	0x3ed067ae	0.407041
135	0xbef6b4ea	-0.481849
136	0x3dd85943	0.105639
137	0xbf20d37c	-0.628227
138	0xbe2c4f3c	-0.168271
139	0x3f2a97e1	0.66638
140	0x3f46f1fe	0.77713
141	0x3f087d2c	0.53316
142	0x3ef039ce	0.469191
143	0x3fa54f37	1.29148
144	0xbf90ecea	-1.13223
145	0x3cada18e	0.0211952
146	0x3f1e9d73	0.61959
147	0xc0f7db4d	-7.74552
148	0xbdd88228	-0.105717
149	0x404f52a8	3.23942
150	0xbc1bd239	-0.00951057
151	0xbaffa943	-0.00195054
152	0x3cecd39e	0.0289095
153	0xbda810a5	-0.082063
154	0x3ea78573	0.32719
155	0x3d4ef11a	0.0505229
156	0xc11b791e	-9.71707
157	0x3bb4786d	0.00550752
158	0x3d7f1cfc	0.0622835
159	0xbd6a6cf1	-0.0572328
160	0xbe4a0fd4	-0.197326
161	0x3d04a998	0.0323883
162	0xbd356df1	-0.0442943
163	0xbabbca1b	-0.00143272
164	0x3a1d9f38	0.00060128
165	0x3df3708b	0.118867
166	0x3c67a6d8	0.0141389
167	0x3dde6c4c	0.108605
168	0xbc7251c2	-0.01479
169	0x3e43d039	0.191224
170	0xbd657d18	-0.0560275
171	0x3d8f0e18	0.0698511
172	0x3d82aa92	0.0638019
173	0x3ba9d10a	0.00518239
174	0x3c4b6a62	0.0124155
175	0x3d709c2f	0.0587427
176	0xbb8601f8	-0.00408959
177	0xbd54dad3	-0.0519665
178	0xbc883d86	-0.0166309
179	0x3cacb99c	0.0210846
180	0xbe494574	-0.196554
181	0x3daec362	0.0853336
182	0x3a780fc7	0.00094628
183	0x3d36badd	0.0446118
184	0xbdad0edc	-0.084501
185	0xbe9fceb8	-0.312124
186	0xb9801c5f	-0.000244352
187	0xbd023d92	-0.031797
188	0xbd0c74d3	-0.0342911
189	0xbc55b680	-0.013044
190	0x3d59c18d	0.0531631
191	0xbe58b4c0	-0.211627
192	0xbd63b48b	-0.0555921
193	0xbc9dbafc	-0.0192542
194	0xc087c38b	-4.24262
195	0x3d37a42c	0.0448343
196	0xbe128c37	-0.143113
197	0x3dbcdd00	0.0922184
198	0xbcd07995	-0.0254486
199	0x3d86f842	0.0659032
200	0x3f6f7048	0.935307
201	0xc000dcdb	-2.01348
202	0x3e81743f	0.25284
203	0xbd5cb817	-0.0538865
204	0xbee648c7	-0.449774
205	0x3f71cf89	0.944573
206	0xbeca0a96	-0.394612
207	0xbed61672	-0.41814
208	0xbf5ba3ec	-0.85797
209	0xbe74091c	-0.238316
210	0x3e181cf8	0.148548
211	0x4055cbbc	3.34056
212	0xbec4ef24	-0.384637
213	0xbe1c8605	-0.152855
214	0x3d67206b	0.0564274
215	0xbfd4240b	-1.65735
216	0xbfacf909	-1.35135
217	0xbf7b779f	-0.982294
218	0xbf831f36	-1.02439
219	0x3e261b2a	0.162213
220	0x3e5c4589	0.215109
221	0xbccbbeb0	-0.0248712
222	0xc0ee6a2b	-7.45046
223	0x3e5abead	0.213618
224	0x3d8fe868	0.0702675
225	0xc01deda6	-2.46763
226	0xc0a60b0f	-5.18885
227	0x3ee23a2a	0.44185
228	0x3a87baf5	0.00103554
229	0x3ecdbca9	0.40183
230	0x3ece2c56	0.402682
231	0xbfe5c91d	-1.7952
232	0xbeb884c7	-0.360388
233	0x3f779baa	0.967219
234	0xc0193871	-2.39407
235	0x3c9b4a3e	0.0189563
236	0x3de9db66	0.114188
237	0xbe9cfaad	-0.3066
238	0x3f97a92a	1.18485
239	0xbf763fdd	-0.961912
240	0xbf11e9e2	-0.569975
241	0x3f8a2435	1.07923
242	0xbff46f69	-1.90965
243	0x3fe3d178	1.77983
244	0x3de477ff	0.111557
245	0xbedfa333	-0.436792
246	0xc0dffcf8	-6.99963
247	0xbf3e805a	-0.744146
248	0xbd243d97	-0.0400978
249	0x3f5529ed	0.832671
250	0x3e4ea63b	0.201806
251	0x3e80f495	0.251866
252	0xbefaeddd	-0.490096
253	0xbce59e55	-0.0280296
254	0x3f0a2af5	0.539718
255	0x3d8b2a0d	0.0679513

B5 f4 [50]
0	0xbedc30f5	-0.430061
1	0xbcc94fd5	-0.0245742
2	0xbfedbe4d	-1.85737
3	0xbc625926	-0.0138152
4	0x3ed6a78b	0.419247
5	0xbe5ab68d	-0.213587
6	0x3e23e964	0.16007
7	0x3f3de918	0.741838
8	0x3c0ac373	0.00846945
9	0xbf39dd5d	-0.726034
10	0xc097bef5	-4.74206
11	0x3d8e50e1	0.0694902
12	0xbeaa5ce6	-0.33274
13	0x3eeab735	0.458429
14	0xbf845a71	-1.03401
15	0xbedf8940	-0.436594
16	0x3db250c3	0.0870681
17	0xbf965f85	-1.17479
18	0x3e970f39	0.295038
19	0x3f25ef20	0.64818
20	0x3f18d37c	0.596977
21	0xc00b3c60	-2.17556
22	0xbf8e27d0	-1.11059
23	0xbedc0421	-0.429719
24	0x3e77a4e8	0.24184
25	0x3e24ffc9	0.161132
26	0x3dd37543	0.103251
27	0x3e433227	0.190621
28	0xc0240514	-2.56281
29	0x3edb6391	0.428494
30	0x3e29e6ac	0.165919
31	0xbd293a71	-0.0413155
32	0xc04d91bc	-3.21202
33	0x3c87c2a2	0.0165723
34	0xbfb9898b	-1.44951
35	0xbe59d27c	-0.212717
36	0x3dc55971	0.096362
37	0xbe3c0486	-0.183611
38	0xbf0df5f1	-0.554534
39	0x3eae058a	0.339886
40	0x3ebbb83d	0.36664
41	0x3f97f7cf	1.18725
42	0xc0e03611	-7.0066
43	0x3f5d6495	0.864816
44	0xc082c5d6	-4.08665
45	0x3e433b97	0.190657
46	0x3ee0c283	0.438984
47	0xbf2a2f9d	-0.664789
48	0xbdea2ec3	-0.114347
49	0x3df940ff	0.121706
